…
2019-04-14 00:44:15,483 INFO: Word embedding size: 4471
2019-04-14 00:44:15,652 INFO: Char embedding size: 99
2019-04-14 00:44:35,520 INFO: 233 batches, avg len: 20.0
2019-04-14 00:44:35,521 INFO: Evaluate every 233 batches.
2019-04-14 00:44:35,521 INFO: vocab size: 4471
/home/mluser/anaconda3/envs/master8_env/lib/python3.6/site-packages/torch/nn/_reduction.py:49: UserWarning: size_average and reduce args will be deprecated, please use reduction='sum' instead.
  warnings.warn(warning.format(ret))
2019-04-14 00:44:40,102 INFO: Model(
  (token_embedder): ConvTokenEmbedder(
    (word_emb_layer): EmbeddingLayer(
      (embedding): Embedding(4471, 100, padding_idx=3)
    )
    (char_emb_layer): EmbeddingLayer(
      (embedding): Embedding(99, 50, padding_idx=96)
    )
    (convolutions): ModuleList(
      (0): Conv1d(50, 32, kernel_size=(1,), stride=(1,))
      (1): Conv1d(50, 32, kernel_size=(2,), stride=(1,))
      (2): Conv1d(50, 64, kernel_size=(3,), stride=(1,))
      (3): Conv1d(50, 128, kernel_size=(4,), stride=(1,))
      (4): Conv1d(50, 256, kernel_size=(5,), stride=(1,))
      (5): Conv1d(50, 512, kernel_size=(6,), stride=(1,))
      (6): Conv1d(50, 1024, kernel_size=(7,), stride=(1,))
    )
    (highways): Highway(
      (_layers): ModuleList(
        (0): Linear(in_features=2048, out_features=4096, bias=True)
        (1): Linear(in_features=2048, out_features=4096, bias=True)
      )
    )
    (projection): Linear(in_features=2148, out_features=512, bias=True)
  )
  (encoder): ElmobiLm(
    (forward_layer_0): LstmCellWithProjection(
      (input_linearity): Linear(in_features=512, out_features=16384, bias=False)
      (state_linearity): Linear(in_features=512, out_features=16384, bias=True)
      (state_projection): Linear(in_features=4096, out_features=512, bias=False)
    )
    (backward_layer_0): LstmCellWithProjection(
      (input_linearity): Linear(in_features=512, out_features=16384, bias=False)
      (state_linearity): Linear(in_features=512, out_features=16384, bias=True)
      (state_projection): Linear(in_features=4096, out_features=512, bias=False)
    )
    (forward_layer_1): LstmCellWithProjection(
      (input_linearity): Linear(in_features=512, out_features=16384, bias=False)
      (state_linearity): Linear(in_features=512, out_features=16384, bias=True)
      (state_projection): Linear(in_features=4096, out_features=512, bias=False)
    )
    (backward_layer_1): LstmCellWithProjection(
      (input_linearity): Linear(in_features=512, out_features=16384, bias=False)
      (state_linearity): Linear(in_features=512, out_features=16384, bias=True)
      (state_projection): Linear(in_features=4096, out_features=512, bias=False)
    )
  )
  (classify_layer): SampledSoftmaxLayer(
    (criterion): CrossEntropyLoss()
    (column_emb): Embedding(4471, 512)
    (column_bias): Embedding(4471, 1)
  )
)
/home/mluser/master8_projects/clustering_vacancies/elmo/elmoformanylangs/biLM.py:349: UserWarning: torch.nn.utils.clip_grad_norm is now deprecated in favor of torch.nn.utils.clip_grad_norm_.
  torch.nn.utils.clip_grad_norm(model.parameters(), opt.clip_grad)
2019-04-14 00:47:56,415 INFO: Epoch=0 iter=32 lr=0.001000 train_ppl=1420.625366 time=196.30s
2019-04-14 00:51:11,483 INFO: Epoch=0 iter=64 lr=0.001000 train_ppl=1060.235229 time=195.07s
…
2019-04-14 01:12:37,531 INFO: Word embedding size: 93674
2019-04-14 01:13:36,036 INFO: Char embedding size: 99
2019-04-14 04:16:28,079 INFO: 99705 batches, avg len: 20.0
2019-04-14 04:16:28,348 INFO: Evaluate every 99705 batches.
2019-04-14 04:16:28,348 INFO: vocab size: 93674
/home/mluser/anaconda3/envs/master8_env/lib/python3.6/site-packages/torch/nn/_reduction.py:49: UserWarning: size_average and reduce args will be deprecated, please use reduction='sum' instead.
  warnings.warn(warning.format(ret))
2019-04-14 04:16:33,502 INFO: Model(
  (token_embedder): ConvTokenEmbedder(
    (word_emb_layer): EmbeddingLayer(
      (embedding): Embedding(93674, 100, padding_idx=3)
    )
    (char_emb_layer): EmbeddingLayer(
      (embedding): Embedding(99, 50, padding_idx=96)
    )
    (convolutions): ModuleList(
      (0): Conv1d(50, 32, kernel_size=(1,), stride=(1,))
      (1): Conv1d(50, 32, kernel_size=(2,), stride=(1,))
      (2): Conv1d(50, 64, kernel_size=(3,), stride=(1,))
      (3): Conv1d(50, 128, kernel_size=(4,), stride=(1,))
      (4): Conv1d(50, 256, kernel_size=(5,), stride=(1,))
      (5): Conv1d(50, 512, kernel_size=(6,), stride=(1,))
      (6): Conv1d(50, 1024, kernel_size=(7,), stride=(1,))
    )
    (highways): Highway(
      (_layers): ModuleList(
        (0): Linear(in_features=2048, out_features=4096, bias=True)
        (1): Linear(in_features=2048, out_features=4096, bias=True)
      )
    )
    (projection): Linear(in_features=2148, out_features=512, bias=True)
  )
  (encoder): ElmobiLm(
    (forward_layer_0): LstmCellWithProjection(
      (input_linearity): Linear(in_features=512, out_features=16384, bias=False)
      (state_linearity): Linear(in_features=512, out_features=16384, bias=True)
      (state_projection): Linear(in_features=4096, out_features=512, bias=False)
    )
    (backward_layer_0): LstmCellWithProjection(
      (input_linearity): Linear(in_features=512, out_features=16384, bias=False)
      (state_linearity): Linear(in_features=512, out_features=16384, bias=True)
      (state_projection): Linear(in_features=4096, out_features=512, bias=False)
    )
    (forward_layer_1): LstmCellWithProjection(
      (input_linearity): Linear(in_features=512, out_features=16384, bias=False)
      (state_linearity): Linear(in_features=512, out_features=16384, bias=True)
      (state_projection): Linear(in_features=4096, out_features=512, bias=False)
    )
    (backward_layer_1): LstmCellWithProjection(
      (input_linearity): Linear(in_features=512, out_features=16384, bias=False)
      (state_linearity): Linear(in_features=512, out_features=16384, bias=True)
      (state_projection): Linear(in_features=4096, out_features=512, bias=False)
    )
  )
  (classify_layer): SampledSoftmaxLayer(
    (criterion): CrossEntropyLoss()
    (column_emb): Embedding(93674, 512)
    (column_bias): Embedding(93674, 1)
  )
)
/home/mluser/master8_projects/clustering_vacancies/elmo/elmoformanylangs/biLM.py:349: UserWarning: torch.nn.utils.clip_grad_norm is now deprecated in favor of torch.nn.utils.clip_grad_norm_.
  torch.nn.utils.clip_grad_norm(model.parameters(), opt.clip_grad)
Traceback (most recent call last):
  File "/home/mluser/anaconda3/envs/master8_env/lib/python3.6/runpy.py", line 193, in _run_module_as_main
…
